…
2021-11-20 14:36:12.793674: E tensorflow/core/grappler/optimizers/dependency_optimizer.cc:697] Iteration = 0, topological sort failed with message: The graph couldn't be sorted in topological order.
2021-11-20 14:36:12.832915: E tensorflow/core/grappler/optimizers/dependency_optimizer.cc:697] Iteration = 1, topological sort failed with message: The graph couldn't be sorted in topological order.
Model: "sequential_1"
_________________________________________________________________
Layer (type)                 Output Shape              Param #   
=================================================================
encoder_1 (LSTM)             (None, 100, 64)           29952     
_________________________________________________________________
encoder_2 (LSTM)             (None, 100, 32)           12416     
_________________________________________________________________
encoder_3 (LSTM)             (None, 16)                3136      
_________________________________________________________________
encoder_decoder_bridge (Repe (None, 100, 16)           0         
_________________________________________________________________
decoder_1 (LSTM)             (None, 100, 16)           2112      
_________________________________________________________________
decoder_2 (LSTM)             (None, 100, 32)           6272      
_________________________________________________________________
decoder_3 (LSTM)             (None, 100, 64)           24832     
_________________________________________________________________
time_distributed_1 (TimeDist (None, 100, 52)           3380      
=================================================================
Total params: 82,100
Trainable params: 82,100
Non-trainable params: 0
_________________________________________________________________
None
Train on 210824 samples, validate on 70275 samples
Epoch 1/200

   512/210824 [..............................] - ETA: 43:56 - loss: 0.9791
  1024/210824 [..............................] - ETA: 32:20 - loss: 0.9376
…
